loading noise
>> Train dataset :  ../data/aihub_car/scripts/train.json
>> Test dataset :  ['../data/aihub_car/scripts/validation.json']
Loading checkpoint model models/aihub_car/LSTM_512x3_512x2_aihub_car/final.pth
Model loaded
Seq2Seq(
  (encoder): EncoderRNN(
    (conv): MaskConv(
      (seq_module): Sequential(
        (0): Conv2d(1, 32, kernel_size=(41, 11), stride=(2, 2), padding=(20, 5))
        (1): BatchNorm2d(32, eps=1e-05, momentum=0.1, affine=True, track_running_stats=True)
        (2): Hardtanh(min_val=0, max_val=20, inplace=True)
        (3): Conv2d(32, 32, kernel_size=(21, 11), stride=(2, 1), padding=(10, 5))
        (4): BatchNorm2d(32, eps=1e-05, momentum=0.1, affine=True, track_running_stats=True)
        (5): Hardtanh(min_val=0, max_val=20, inplace=True)
      )
    )
    (rnn): LSTM(1312, 512, num_layers=3, dropout=0.3, bidirectional=True)
  )
  (decoder): DecoderRNN(
    (rnn): LSTM(1536, 512, num_layers=2, batch_first=True, dropout=0.3)
    (embedding): Embedding(2003, 512)
    (input_dropout): Dropout(p=0.3, inplace=False)
    (attention): Attention(
      (conv): Conv1d(1, 512, kernel_size=(3,), stride=(1,), padding=(1,))
      (W): Linear(in_features=512, out_features=512, bias=False)
      (V): Linear(in_features=1024, out_features=512, bias=False)
      (fc): Linear(in_features=512, out_features=1, bias=True)
      (tanh): Tanh()
      (softmax): Softmax(dim=-1)
    )
    (fc): Linear(in_features=1536, out_features=2003, bias=True)
  )
)
Number of parameters: 31523060
어제 오늘 일곱 중에 연락처에 등록 안 되어 있는 번호 알려 줘.	어제 온 전화 중에 연락처에 등록 안 되어 있는 번호 알려 줘.
가장 최근 전체에서 성수역으로 가는 길 좀 알려 줘.	가장 최근 목적지에서 성수역으로 가는 길 좀 안내해 줘.
삼성전자 일 년는 식료보다 얼마나 올랐어	삼성전자 일 년 전 주가보다 얼마나 올랐어
공기 누가 포워면 되니	고기류가 포함 안 된 메뉴 알려 줘.
오늘 울고 싶은 게문은데 눈물 흘릴면 노래로 틀어 줘.	오늘 울고 싶은 기분인데 눈물 흘릴 만한 노래로 틀어 줘.
내 동생은 생일 어 오프로 내려 줘.	내일 동생 생일이라고 카톡에 메모해 줘.
…
