./script/run_las_asr_trainer.sh: 5: ./script/run_las_asr_trainer.sh: 
ClovaCall
Copyright 2020-present NAVER Corp.
MIT license
: not found
loading noise
>> Train dataset :  ../data/aihub_car/scripts/train.json
>> Test dataset :  ['../data/aihub_car/scripts/validation.json']
Loading checkpoint model models/aihub_car_noise/LSTM_512x3_512x2_aihub_car_noise/final.pth
Model loaded
Seq2Seq(
  (encoder): EncoderRNN(
    (conv): MaskConv(
      (seq_module): Sequential(
        (0): Conv2d(1, 32, kernel_size=(41, 11), stride=(2, 2), padding=(20, 5))
        (1): BatchNorm2d(32, eps=1e-05, momentum=0.1, affine=True, track_running_stats=True)
        (2): Hardtanh(min_val=0, max_val=20, inplace=True)
        (3): Conv2d(32, 32, kernel_size=(21, 11), stride=(2, 1), padding=(10, 5))
        (4): BatchNorm2d(32, eps=1e-05, momentum=0.1, affine=True, track_running_stats=True)
        (5): Hardtanh(min_val=0, max_val=20, inplace=True)
      )
    )
    (rnn): LSTM(1312, 512, num_layers=3, dropout=0.3, bidirectional=True)
  )
  (decoder): DecoderRNN(
    (rnn): LSTM(1536, 512, num_layers=2, batch_first=True, dropout=0.3)
    (embedding): Embedding(2003, 512)
    (input_dropout): Dropout(p=0.3, inplace=False)
    (attention): Attention(
      (conv): Conv1d(1, 512, kernel_size=(3,), stride=(1,), padding=(1,))
      (W): Linear(in_features=512, out_features=512, bias=False)
      (V): Linear(in_features=1024, out_features=512, bias=False)
      (fc): Linear(in_features=512, out_features=1, bias=True)
      (tanh): Tanh()
      (softmax): Softmax(dim=-1)
    )
    (fc): Linear(in_features=1536, out_features=2003, bias=True)
  )
)
Number of parameters: 31523060
Epoch: [1][1/12063]	Loss 0.0017	Cer 0.0000
Epoch: [1][2/12063]	Loss 0.0024	Cer 0.2283
Epoch: [1][3/12063]	Loss 0.0017	Cer 0.0000
Epoch: [1][4/12063]	Loss 0.0023	Cer 0.2179
Epoch: [1][5/12063]	Loss 0.0015	Cer 0.0000
Epoch: [1][6/12063]	Loss 0.0012	Cer 0.0000
Epoch: [1][7/12063]	Loss 0.0012	Cer 0.0000
Epoch: [1][8/12063]	Loss 0.0007	Cer 0.0000
…
